…
 'deterministic': True,
 'device_ids': 5,
 'epoch': 20,
 'image_size': 32,
 'inc_cls_num': 10,
 'includes': ['headers/data.yaml', 'headers/device.yaml', 'headers/model.yaml'],
 'init_cls_num': 10,
 'init_epoch': 20,
 'lr_scheduler': {'kwargs': {'gamma': 1.0, 'step_size': 20}, 'name': 'StepLR'},
 'n_gpu': 1,
 'optim': 'sgd',
 'optimizer': {'kwargs': {'lr': 0.1}, 'name': 'SGD'},
 'pin_memory': False,
 'rank': 7,
 'save_path': './inflora_ca',
 'seed': 2024,
 'task_num': 10,
 'val_per_epoch': 10,
 'warmup': 0,
 'workers': 16}
ViTZoo(
  (feat): VisionTransformer(
    (patch_embed): PatchEmbed(
      (proj): Conv2d(3, 768, kernel_size=(16, 16), stride=(16, 16))
      (norm): Identity()
    )
    (pos_drop): Dropout(p=0.0, inplace=False)
    (blocks): Sequential(
      (0): Block_LoRA(
        (norm1): LayerNorm((768,), eps=1e-06, elementwise_affine=True)
        (attn): Attention_LoRA(
          (qkv): Linear(in_features=768, out_features=2304, bias=True)
          (attn_drop): Dropout(p=0.0, inplace=False)
          (proj): Linear(in_features=768, out_features=768, bias=True)
          (proj_drop): Dropout(p=0.0, inplace=False)
          (lora_A_k): ModuleList(
            (0-9): 10 x Linear(in_features=768, out_features=5, bias=False)
          )
          (lora_B_k): ModuleList(
            (0-9): 10 x Linear(in_features=5, out_features=768, bias=False)
          )
          (lora_A_v): ModuleList(
            (0-9): 10 x Linear(in_features=768, out_features=5, bias=False)
          )
          (lora_B_v): ModuleList(
            (0-9): 10 x Linear(in_features=5, out_features=768, bias=False)
          )
        )
        (ls1): Identity()
        (drop_path1): Identity()
        (norm2): LayerNorm((768,), eps=1e-06, elementwise_affine=True)
        (mlp): Mlp(
          (fc1): Linear(in_features=768, out_features=3072, bias=True)
          (act): GELU(approximate='none')
          (fc2): Linear(in_features=3072, out_features=768, bias=True)
          (drop): Dropout(p=0.0, inplace=False)
        )
        (ls2): Identity()
        (drop_path2): Identity()
      )
      (1): Block_LoRA(
        (norm1): LayerNorm((768,), eps=1e-06, elementwise_affine=True)
        (attn): Attention_LoRA(
          (qkv): Linear(in_features=768, out_features=2304, bias=True)
          (attn_drop): Dropout(p=0.0, inplace=False)
          (proj): Linear(in_features=768, out_features=768, bias=True)
          (proj_drop): Dropout(p=0.0, inplace=False)
          (lora_A_k): ModuleList(
            (0-9): 10 x Linear(in_features=768, out_features=5, bias=False)
          )
          (lora_B_k): ModuleList(
            (0-9): 10 x Linear(in_features=5, out_features=768, bias=False)
          )
          (lora_A_v): ModuleList(
            (0-9): 10 x Linear(in_features=768, out_features=5, bias=False)
          )
          (lora_B_v): ModuleList(
            (0-9): 10 x Linear(in_features=5, out_features=768, bias=False)
          )
        )
        (ls1): Identity()
        (drop_path1): Identity()
        (norm2): LayerNorm((768,), eps=1e-06, elementwise_affine=True)
        (mlp): Mlp(
          (fc1): Linear(in_features=768, out_features=3072, bias=True)
          (act): GELU(approximate='none')
          (fc2): Linear(in_features=3072, out_features=768, bias=True)
          (drop): Dropout(p=0.0, inplace=False)
        )
        (ls2): Identity()
        (drop_path2): Identity()
      )
      (2): Block_LoRA(
        (norm1): LayerNorm((768,), eps=1e-06, elementwise_affine=True)
        (attn): Attention_LoRA(
          (qkv): Linear(in_features=768, out_features=2304, bias=True)
          (attn_drop): Dropout(p=0.0, inplace=False)
          (proj): Linear(in_features=768, out_features=768, bias=True)
          (proj_drop): Dropout(p=0.0, inplace=False)
          (lora_A_k): ModuleList(
            (0-9): 10 x Linear(in_features=768, out_features=5, bias=False)
          )
          (lora_B_k): ModuleList(
            (0-9): 10 x Linear(in_features=5, out_features=768, bias=False)
          )
          (lora_A_v): ModuleList(
            (0-9): 10 x Linear(in_features=768, out_features=5, bias=False)
          )
          (lora_B_v): ModuleList(
            (0-9): 10 x Linear(in_features=5, out_features=768, bias=False)
          )
        )
        (ls1): Identity()
        (drop_path1): Identity()
        (norm2): LayerNorm((768,), eps=1e-06, elementwise_affine=True)
        (mlp): Mlp(
          (fc1): Linear(in_features=768, out_features=3072, bias=True)
          (act): GELU(approximate='none')
          (fc2): Linear(in_features=3072, out_features=768, bias=True)
          (drop): Dropout(p=0.0, inplace=False)
        )
        (ls2): Identity()
        (drop_path2): Identity()
      )
      (3): Block_LoRA(
        (norm1): LayerNorm((768,), eps=1e-06, elementwise_affine=True)
        (attn): Attention_LoRA(
          (qkv): Linear(in_features=768, out_features=2304, bias=True)
          (attn_drop): Dropout(p=0.0, inplace=False)
          (proj): Linear(in_features=768, out_features=768, bias=True)
          (proj_drop): Dropout(p=0.0, inplace=False)
          (lora_A_k): ModuleList(
            (0-9): 10 x Linear(in_features=768, out_features=5, bias=False)
          )
          (lora_B_k): ModuleList(
            (0-9): 10 x Linear(in_features=5, out_features=768, bias=False)
          )
          (lora_A_v): ModuleList(
            (0-9): 10 x Linear(in_features=768, out_features=5, bias=False)
          )
          (lora_B_v): ModuleList(
            (0-9): 10 x Linear(in_features=5, out_features=768, bias=False)
          )
        )
        (ls1): Identity()
        (drop_path1): Identity()
        (norm2): LayerNorm((768,), eps=1e-06, elementwise_affine=True)
        (mlp): Mlp(
          (fc1): Linear(in_features=768, out_features=3072, bias=True)
          (act): GELU(approximate='none')
          (fc2): Linear(in_features=3072, out_features=768, bias=True)
          (drop): Dropout(p=0.0, inplace=False)
        )
        (ls2): Identity()
        (drop_path2): Identity()
      )
      (4): Block_LoRA(
        (norm1): LayerNorm((768,), eps=1e-06, elementwise_affine=True)
        (attn): Attention_LoRA(
          (qkv): Linear(in_features=768, out_features=2304, bias=True)
          (attn_drop): Dropout(p=0.0, inplace=False)
          (proj): Linear(in_features=768, out_features=768, bias=True)
          (proj_drop): Dropout(p=0.0, inplace=False)
          (lora_A_k): ModuleList(
            (0-9): 10 x Linear(in_features=768, out_features=5, bias=False)
          )
          (lora_B_k): ModuleList(
            (0-9): 10 x Linear(in_features=5, out_features=768, bias=False)
          )
          (lora_A_v): ModuleList(
            (0-9): 10 x Linear(in_features=768, out_features=5, bias=False)
          )
          (lora_B_v): ModuleList(
            (0-9): 10 x Linear(in_features=5, out_features=768, bias=False)
          )
        )
        (ls1): Identity()
        (drop_path1): Identity()
        (norm2): LayerNorm((768,), eps=1e-06, elementwise_affine=True)
        (mlp): Mlp(
          (fc1): Linear(in_features=768, out_features=3072, bias=True)
          (act): GELU(approximate='none')
          (fc2): Linear(in_features=3072, out_features=768, bias=True)
          (drop): Dropout(p=0.0, inplace=False)
        )
        (ls2): Identity()
        (drop_path2): Identity()
      )
      (5): Block_LoRA(
        (norm1): LayerNorm((768,), eps=1e-06, elementwise_affine=True)
        (attn): Attention_LoRA(
          (qkv): Linear(in_features=768, out_features=2304, bias=True)
          (attn_drop): Dropout(p=0.0, inplace=False)
          (proj): Linear(in_features=768, out_features=768, bias=True)
          (proj_drop): Dropout(p=0.0, inplace=False)
          (lora_A_k): ModuleList(
            (0-9): 10 x Linear(in_features=768, out_features=5, bias=False)
          )
          (lora_B_k): ModuleList(
            (0-9): 10 x Linear(in_features=5, out_features=768, bias=False)
          )
          (lora_A_v): ModuleList(
            (0-9): 10 x Linear(in_features=768, out_features=5, bias=False)
          )
          (lora_B_v): ModuleList(
            (0-9): 10 x Linear(in_features=5, out_features=768, bias=False)
          )
        )
        (ls1): Identity()
        (drop_path1): Identity()
        (norm2): LayerNorm((768,), eps=1e-06, elementwise_affine=True)
        (mlp): Mlp(
          (fc1): Linear(in_features=768, out_features=3072, bias=True)
          (act): GELU(approximate='none')
          (fc2): Linear(in_features=3072, out_features=768, bias=True)
          (drop): Dropout(p=0.0, inplace=False)
        )
        (ls2): Identity()
        (drop_path2): Identity()
      )
      (6): Block_LoRA(
        (norm1): LayerNorm((768,), eps=1e-06, elementwise_affine=True)
        (attn): Attention_LoRA(
          (qkv): Linear(in_features=768, out_features=2304, bias=True)
          (attn_drop): Dropout(p=0.0, inplace=False)
          (proj): Linear(in_features=768, out_features=768, bias=True)
          (proj_drop): Dropout(p=0.0, inplace=False)
          (lora_A_k): ModuleList(
            (0-9): 10 x Linear(in_features=768, out_features=5, bias=False)
          )
          (lora_B_k): ModuleList(
            (0-9): 10 x Linear(in_features=5, out_features=768, bias=False)
          )
          (lora_A_v): ModuleList(
            (0-9): 10 x Linear(in_features=768, out_features=5, bias=False)
          )
          (lora_B_v): ModuleList(
            (0-9): 10 x Linear(in_features=5, out_features=768, bias=False)
          )
        )
        (ls1): Identity()
        (drop_path1): Identity()
        (norm2): LayerNorm((768,), eps=1e-06, elementwise_affine=True)
        (mlp): Mlp(
          (fc1): Linear(in_features=768, out_features=3072, bias=True)
          (act): GELU(approximate='none')
          (fc2): Linear(in_features=3072, out_features=768, bias=True)
          (drop): Dropout(p=0.0, inplace=False)
        )
        (ls2): Identity()
        (drop_path2): Identity()
      )
      (7): Block_LoRA(
        (norm1): LayerNorm((768,), eps=1e-06, elementwise_affine=True)
        (attn): Attention_LoRA(
          (qkv): Linear(in_features=768, out_features=2304, bias=True)
          (attn_drop): Dropout(p=0.0, inplace=False)
          (proj): Linear(in_features=768, out_features=768, bias=True)
          (proj_drop): Dropout(p=0.0, inplace=False)
          (lora_A_k): ModuleList(
            (0-9): 10 x Linear(in_features=768, out_features=5, bias=False)
          )
          (lora_B_k): ModuleList(
            (0-9): 10 x Linear(in_features=5, out_features=768, bias=False)
          )
          (lora_A_v): ModuleList(
            (0-9): 10 x Linear(in_features=768, out_features=5, bias=False)
          )
          (lora_B_v): ModuleList(
            (0-9): 10 x Linear(in_features=5, out_features=768, bias=False)
          )
        )
        (ls1): Identity()
        (drop_path1): Identity()
        (norm2): LayerNorm((768,), eps=1e-06, elementwise_affine=True)
        (mlp): Mlp(
          (fc1): Linear(in_features=768, out_features=3072, bias=True)
          (act): GELU(approximate='none')
          (fc2): Linear(in_features=3072, out_features=768, bias=True)
          (drop): Dropout(p=0.0, inplace=False)
        )
        (ls2): Identity()
        (drop_path2): Identity()
      )
      (8): Block_LoRA(
        (norm1): LayerNorm((768,), eps=1e-06, elementwise_affine=True)
        (attn): Attention_LoRA(
          (qkv): Linear(in_features=768, out_features=2304, bias=True)
          (attn_drop): Dropout(p=0.0, inplace=False)
          (proj): Linear(in_features=768, out_features=768, bias=True)
          (proj_drop): Dropout(p=0.0, inplace=False)
          (lora_A_k): ModuleList(
            (0-9): 10 x Linear(in_features=768, out_features=5, bias=False)
          )
          (lora_B_k): ModuleList(
            (0-9): 10 x Linear(in_features=5, out_features=768, bias=False)
          )
          (lora_A_v): ModuleList(
            (0-9): 10 x Linear(in_features=768, out_features=5, bias=False)
          )
          (lora_B_v): ModuleList(
            (0-9): 10 x Linear(in_features=5, out_features=768, bias=False)
          )
        )
        (ls1): Identity()
        (drop_path1): Identity()
        (norm2): LayerNorm((768,), eps=1e-06, elementwise_affine=True)
        (mlp): Mlp(
          (fc1): Linear(in_features=768, out_features=3072, bias=True)
          (act): GELU(approximate='none')
          (fc2): Linear(in_features=3072, out_features=768, bias=True)
          (drop): Dropout(p=0.0, inplace=False)
        )
        (ls2): Identity()
        (drop_path2): Identity()
      )
      (9): Block_LoRA(
        (norm1): LayerNorm((768,), eps=1e-06, elementwise_affine=True)
        (attn): Attention_LoRA(
          (qkv): Linear(in_features=768, out_features=2304, bias=True)
          (attn_drop): Dropout(p=0.0, inplace=False)
          (proj): Linear(in_features=768, out_features=768, bias=True)
          (proj_drop): Dropout(p=0.0, inplace=False)
          (lora_A_k): ModuleList(
            (0-9): 10 x Linear(in_features=768, out_features=5, bias=False)
          )
          (lora_B_k): ModuleList(
            (0-9): 10 x Linear(in_features=5, out_features=768, bias=False)
          )
          (lora_A_v): ModuleList(
            (0-9): 10 x Linear(in_features=768, out_features=5, bias=False)
          )
          (lora_B_v): ModuleList(
            (0-9): 10 x Linear(in_features=5, out_features=768, bias=False)
          )
        )
        (ls1): Identity()
        (drop_path1): Identity()
        (norm2): LayerNorm((768,), eps=1e-06, elementwise_affine=True)
        (mlp): Mlp(
          (fc1): Linear(in_features=768, out_features=3072, bias=True)
          (act): GELU(approximate='none')
          (fc2): Linear(in_features=3072, out_features=768, bias=True)
          (drop): Dropout(p=0.0, inplace=False)
        )
        (ls2): Identity()
        (drop_path2): Identity()
      )
      (10): Block_LoRA(
        (norm1): LayerNorm((768,), eps=1e-06, elementwise_affine=True)
        (attn): Attention_LoRA(
          (qkv): Linear(in_features=768, out_features=2304, bias=True)
          (attn_drop): Dropout(p=0.0, inplace=False)
          (proj): Linear(in_features=768, out_features=768, bias=True)
          (proj_drop): Dropout(p=0.0, inplace=False)
          (lora_A_k): ModuleList(
            (0-9): 10 x Linear(in_features=768, out_features=5, bias=False)
          )
          (lora_B_k): ModuleList(
            (0-9): 10 x Linear(in_features=5, out_features=768, bias=False)
          )
          (lora_A_v): ModuleList(
            (0-9): 10 x Linear(in_features=768, out_features=5, bias=False)
          )
          (lora_B_v): ModuleList(
            (0-9): 10 x Linear(in_features=5, out_features=768, bias=False)
          )
        )
        (ls1): Identity()
        (drop_path1): Identity()
        (norm2): LayerNorm((768,), eps=1e-06, elementwise_affine=True)
        (mlp): Mlp(
          (fc1): Linear(in_features=768, out_features=3072, bias=True)
          (act): GELU(approximate='none')
          (fc2): Linear(in_features=3072, out_features=768, bias=True)
          (drop): Dropout(p=0.0, inplace=False)
        )
        (ls2): Identity()
        (drop_path2): Identity()
      )
      (11): Block_LoRA(
        (norm1): LayerNorm((768,), eps=1e-06, elementwise_affine=True)
        (attn): Attention_LoRA(
          (qkv): Linear(in_features=768, out_features=2304, bias=True)
          (attn_drop): Dropout(p=0.0, inplace=False)
          (proj): Linear(in_features=768, out_features=768, bias=True)
          (proj_drop): Dropout(p=0.0, inplace=False)
          (lora_A_k): ModuleList(
            (0-9): 10 x Linear(in_features=768, out_features=5, bias=False)
          )
          (lora_B_k): ModuleList(
            (0-9): 10 x Linear(in_features=5, out_features=768, bias=False)
          )
          (lora_A_v): ModuleList(
            (0-9): 10 x Linear(in_features=768, out_features=5, bias=False)
          )
          (lora_B_v): ModuleList(
            (0-9): 10 x Linear(in_features=5, out_features=768, bias=False)
          )
        )
        (ls1): Identity()
        (drop_path1): Identity()
        (norm2): LayerNorm((768,), eps=1e-06, elementwise_affine=True)
        (mlp): Mlp(
          (fc1): Linear(in_features=768, out_features=3072, bias=True)
          (act): GELU(approximate='none')
          (fc2): Linear(in_features=3072, out_features=768, bias=True)
          (drop): Dropout(p=0.0, inplace=False)
        )
        (ls2): Identity()
        (drop_path2): Identity()
      )
    )
    (norm): LayerNorm((768,), eps=1e-05, elementwise_affine=True)
  )
)
Trainable params in the model: 87795656
================Task 0 Start!================
Parameters to be updated: {'backbone.feat.blocks.8.attn.lora_B_k.0.weight', 'backbone.feat.blocks.5.attn.lora_B_k.0.weight', 'backbone.feat.blocks.2.attn.lora_B_v.0.weight', 'backbone.feat.blocks.4.attn.lora_B_v.0.weight', 'backbone.feat.blocks.2.attn.lora_B_k.0.w
…
